…
=======================================================================================================================================================================================================================
Layer (type:depth-idx)                   Input Shape               Output Shape              Param #                   Param %                   Kernel Shape              Mult-Adds                 Trainable
=======================================================================================================================================================================================================================
Smoother                                 [64, 3, 32, 32]           [64, 10]                  --                             --                   --                        --                        True
├─Sequential: 1-1                        [64, 3, 32, 32]           [64, 1024, 1, 1]          --                             --                   --                        --                        True
│    └─Sequential: 2-1                   [64, 3, 32, 32]           [64, 64, 16, 16]          --                             --                   --                        --                        True
│    │    └─Conv2d: 3-1                  [64, 3, 32, 32]           [64, 64, 32, 32]          1,792                       0.03%                   [3, 3]                    117,440,512               True
│    │    └─BatchNorm2d: 3-2             [64, 64, 32, 32]          [64, 64, 32, 32]          128                         0.00%                   --                        8,192                     True
│    │    └─MaxPool2d: 3-3               [64, 64, 32, 32]          [64, 64, 16, 16]          --                             --                   [2, 2]                    --                        --
│    │    └─LeakyReLU: 3-4               [64, 64, 16, 16]          [64, 64, 16, 16]          --                             --                   --                        --                        --
│    └─Sequential: 2-2                   [64, 64, 16, 16]          [64, 128, 8, 8]           --                             --                   --                        --                        True
│    │    └─Conv2d: 3-5                  [64, 64, 16, 16]          [64, 128, 16, 16]         73,856                      1.18%                   [3, 3]                    1,210,056,704             True
│    │    └─BatchNorm2d: 3-6             [64, 128, 16, 16]         [64, 128, 16, 16]         256                         0.00%                   --                        16,384                    True
│    │    └─MaxPool2d: 3-7               [64, 128, 16, 16]         [64, 128, 8, 8]           --                             --                   [2, 2]                    --                        --
│    │    └─LeakyReLU: 3-8               [64, 128, 8, 8]           [64, 128, 8, 8]           --                             --                   --                        --                        --
│    └─Sequential: 2-3                   [64, 128, 8, 8]           [64, 256, 4, 4]           --                             --                   --                        --                        True
│    │    └─Conv2d: 3-9                  [64, 128, 8, 8]           [64, 256, 8, 8]           295,168                     4.70%                   [3, 3]                    1,209,008,128             True
│    │    └─BatchNorm2d: 3-10            [64, 256, 8, 8]           [64, 256, 8, 8]           512                         0.01%                   --                        32,768                    True
│    │    └─MaxPool2d: 3-11              [64, 256, 8, 8]           [64, 256, 4, 4]           --                             --                   [2, 2]                    --                        --
│    │    └─LeakyReLU: 3-12              [64, 256, 4, 4]           [64, 256, 4, 4]           --                             --                   --                        --                        --
│    └─Sequential: 2-4                   [64, 256, 4, 4]           [64, 512, 2, 2]           --                             --                   --                        --                        True
│    │    └─Conv2d: 3-13                 [64, 256, 4, 4]           [64, 512, 4, 4]           1,180,160                  18.78%                   [3, 3]                    1,208,483,840             True
│    │    └─BatchNorm2d: 3-14            [64, 512, 4, 4]           [64, 512, 4, 4]           1,024                       0.02%                   --                        65,536                    True
│    │    └─MaxPool2d: 3-15              [64, 512, 4, 4]           [64, 512, 2, 2]           --                             --                   [2, 2]                    --                        --
│    │    └─LeakyReLU: 3-16              [64, 512, 2, 2]           [64, 512, 2, 2]           --                             --                   --                        --                        --
│    └─Sequential: 2-5                   [64, 512, 2, 2]           [64, 1024, 1, 1]          --                             --                   --                        --                        True
│    │    └─Conv2d: 3-17                 [64, 512, 2, 2]           [64, 1024, 2, 2]          4,719,616                  75.10%                   [3, 3]                    1,208,221,696             True
│    │    └─BatchNorm2d: 3-18            [64, 1024, 2, 2]          [64, 1024, 2, 2]          2,048                       0.03%                   --                        131,072                   True
│    │    └─MaxPool2d: 3-19              [64, 1024, 2, 2]          [64, 1024, 1, 1]          --                             --                   [2, 2]                    --                        --
│    │    └─LeakyReLU: 3-20              [64, 1024, 1, 1]          [64, 1024, 1, 1]          --                             --                   --                        --                        --
├─Linear: 1-2                            [64, 1024]                [64, 10]                  10,250                      0.16%                   --                        656,000                   True
=======================================================================================================================================================================================================================
Total params: 6,284,810
Trainable params: 6,284,810
Non-trainable params: 0
Total mult-adds (G): 4.95
…
